rnn_lstm/basic_rnn.pt (torch, 268824 bytes, 8 tensors)

rnn.rnn.0.W f4 [66, 128]
0	0xbe6a5c7a	-0.2288684
1	0xbeaa148a	-0.33218795
2	0x3e2058cf	0.15658878
3	0x3d6fff46	0.058593057
4	0x3dd68015	0.104736485
5	0xbe3610cb	-0.17779844
6	0xbe89eb9a	-0.26937562
7	0x3f1383c4	0.57622933
8	0x3e061f2e	0.13097832
9	0xbf542016	-0.8286146
10	0x3d593eba	0.053038336
11	0xbeae7b48	-0.3407843
12	0x3f83e332	1.030371
13	0x3f72f8b0	0.94910717
14	0x3f3b1233	0.73074645
15	0xbe363523	-0.17793708
16	0x3e861a6e	0.2619204
17	0xbf1106c4	-0.5665095
18	0x3f64cfe7	0.89379734
19	0x3e50bc7a	0.20384398
20	0x3f3878a4	0.72059083
21	0x3e1b769c	0.15181965
22	0x3c6497b1	0.013952182
23	0x3e9826c9	0.2971709
24	0xbf4c0505	-0.7969516
25	0xbe32d3ba	-0.1746358
26	0x3f43e1d1	0.76516443
27	0x3f7fb986	0.9989246
28	0x3f243b52	0.64153016
29	0x3e870d0a	0.26377136
30	0x3e3df159	0.18549098
31	0x3ee992ef	0.45619914
32	0x3da15fc4	0.07879594
33	0x3e4bf042	0.1991587
34	0xbd88af9b	-0.06674119
35	0xbf01aba5	-0.50652534
36	0xbe71ab60	-0.2360053
37	0xbd4e52fa	-0.0503721
38	0xbfb53256	-1.4155986
39	0x3f88a28d	1.0674607
40	0x3f16c91f	0.58900636
41	0xbea83f5a	-0.32860833
42	0x3e8617a4	0.2618991
43	0xbe3ea7f5	-0.18618758
44	0xbe6ba868	-0.2301346
45	0xbf479c47	-0.77972835
46	0xbfb96f7f	-1.4487151
47	0x3d7c2035	0.061554153
48	0x3f3205af	0.6953992
49	0x3f71ad9f	0.9440555
50	0xbf446e4f	-0.7673082
51	0xbfba130a	-1.453706
52	0xbe2b8767	-0.1675087
53	0xbe0de8e3	-0.1385837
54	0x3fc8a380	1.5674896
55	0xbee81535	-0.4532868
56	0x3f9b98f8	1.2156057
57	0xbddc2819	-0.107498355
58	0xbf9d8bb1	-1.2308255
59	0x3dda3eaf	0.10656487
60	0xbde835c8	-0.11338383
61	0x3d0b0fcd	0.033950616
62	0x3eb92df5	0.36167875
63	0xbe0ffd90	-0.1406157
64	0xbc190901	-0.009340526
65	0xbfc48eed	-1.5356117
66	0xbda6f782	-0.08152677
67	0x3ec64e60	0.3873167
68	0xbe7888b1	-0.24270894
69	0xbdb67387	-0.08908754
70	0x3de83188	0.11337572
71	0xbf4ba02e	-0.7954129
72	0x3ea13bd4	0.31490958
73	0x3eb5af35	0.35485235
74	0xbdb294d2	-0.087197915
75	0x3f3c3c34	0.7352936
76	0x3a72a4f0	0.0009256145
77	0x3f66c830	0.9014921
78	0x3ebe4b03	0.37166604
79	0x3ec9a3d1	0.39382794
80	0xbe4b915d	-0.1987967
81	0x3fb4da41	1.4129106
82	0xbd1ca456	-0.03824266
83	0xbdeaac66	-0.11458664
84	0xbf80b2b3	-1.0054535
85	0x3d24bafd	0.04021739
86	0x3f03fb1d	0.51555043
87	0xbf73e84b	-0.95276326
88	0xbf1daea9	-0.61594635
89	0x3f486b44	0.78288674
90	0x3dabb8b6	0.0838484
91	0xbe99cfa8	-0.30041242
92	0xbf08124c	-0.5315292
93	0xbe4a841a	-0.19776955
94	0xbe0f8bd5	-0.14018185
95	0x3e8a5195	0.27015367
96	0xbe118daa	-0.14214197
97	0xbd6d1007	-0.057876613
98	0x3e9f3d19	0.311013
99	0x3ee6eeb1	0.45103982
100	0x3da62522	0.08112551
101	0xbf8e6ffb	-1.1127924
102	0x3e35cd81	0.17754175
103	0x3f03320d	0.51248246
104	0xbebc460d	-0.36772195
105	0x3f2b7fa9	0.6699167
106	0x3f0e2378	0.5552287
107	0xbf467981	-0.7752915
108	0xbde75244	-0.11294988
109	0x3e8a5917	0.27021095
110	0x3f25b624	0.6473105
111	0x3e87e99e	0.26545423
112	0xbf49ab19	-0.787767
113	0xbf80f1bd	-1.0073773
114	0x3d952888	0.07283121
115	0x3f9ca323	1.2237285
116	0x3ebe6f67	0.37194368
117	0xbe7ed7f9	-0.24887075
118	0xbef8c925	-0.4859096
119	0x3f430ba8	0.7618966
120	0x3e2ca025	0.16857965
121	0xbd8c3fec	-0.0684813
122	0xb7248700	-9.806594e-06
123	0x3edc48c7	0.43024275
124	0x3ebe7c78	0.37204337
125	0x3f11ef5c	0.5700586
126	0x3f01409f	0.5048923
127	0xbf2657c6	-0.6497768
128	0x3de88e2b	0.113552414
129	0x3e41ce29	0.189263
130	0x3e0f500f	0.13995384
131	0x3f4539d4	0.77041364
132	0xbe7e166a	-0.24813238
133	0xbeb0b879	-0.3451574
134	0xbec76901	-0.389473
135	0x3e8a7d13	0.2704855
136	0x3ddb816d	0.107180454
137	0xbf14a9c5	-0.5807155
138	0x3dbbf1d7	0.09176987
139	0x3e6a7048	0.22894394
140	0xbe39a185	-0.18128021
141	0x3cca5e0d	0.02470305
142	0x3fdd6575	1.7296587
143	0xbcb2453a	-0.021761525
144	0xbd833009	-0.06405646
145	0xbf8021c6	-1.0010307
146	0xbf99354a	-1.1969388
147	0x3fb8ba40	1.4431839
148	0xbedd7768	-0.43255162
149	0xbf04cfb0	-0.51879406
150	0x3db15d23	0.086603425
151	0x3ef22330	0.4729247
152	0x3e894594	0.26810896
153	0xbf567384	-0.8377001
154	0xbed136c7	-0.40862104
155	0x3eb29a70	0.3488345
156	0x3e186a2d	0.14884253
157	0x3ebdc7f8	0.37066627
158	0x3ecc6b73	0.39925727
159	0x3e985cee	0.297584
160	0xbf795f92	-0.97411454
161	0x3e296dba	0.16545764
162	0xbd700fe4	-0.058608904
163	0x3dc9df5d	0.09857056
164	0x3eb39cbb	0.35080513
165	0xbefdafaa	-0.49548084
166	0x3f26db46	0.65178335
167	0x3f138756	0.5762838
168	0x3f352ce2	0.7077161
169	0xbf0c2352	-0.54741395
170	0x3ee16a08	0.44026208
171	0x3eaf5618	0.34245372
172	0x3f02018c	0.5078361
173	0x3ce1b698	0.027552888
174	0x3e85f8a9	0.26166275
175	0x3de776f6	0.11301987
176	0x3f47fbc4	0.7811854
177	0x3f1a6488	0.6030965
178	0x3f800624	1.0001874
179	0x3e9e1fc7	0.3088362
180	0x3ef884c0	0.4853878
181	0xba2ec1bc	-0.0006666442
182	0xbf4f830f	-0.81059355
183	0xbf627be5	-0.884703
184	0x3e8a1a64	0.2697326
185	0xbf677ba8	-0.9042306
186	0xbdc85f5a	-0.09783812
187	0xbedbd586	-0.42936343
188	0x3d67d8a4	0.05660309
189	0xbf27212e	-0.65285003
190	0xbeb138e5	-0.3461372
191	0x3edc7370	0.43056822
192	0x3f048d7b	0.5177838
193	0xbf9c634f	-1.2217807
194	0xbe87fae3	-0.265586
195	0x3f0a144e	0.5393723
196	0x3e40e5b3	0.18837623
197	0x3e80614d	0.25074235
198	0x3e92202b	0.28540167
199	0xbf7d4478	-0.989326
200	0x3e7f8709	0.24953856
201	0x3e848728	0.25884366
202	0x3e808139	0.2509859
203	0xbf22e831	-0.63635546
204	0xbd37849d	-0.044804204
205	0xbf4407c3	-0.76574343
206	0x3fa2a4ff	1.2706603
207	0xbda8b7b6	-0.08238165
208	0x3fc5da68	1.5457277
209	0x3e14f757	0.14547478
210	0x3ecc2cc2	0.39877898
211	0x3ec16fd9	0.37780645
212	0xbf3cbc5c	-0.73724914
213	0x3e7ae346	0.2450076
214	0xbd82b59e	-0.06382297
215	0x3f274dae	0.65352905
216	0xbeade080	-0.33960342
217	0x3e408a01	0.18802644
218	0x3f518e7a	0.81858027
219	0xbf1a8519	-0.6035934
220	0x3f15dda9	0.5854135
221	0x3f904d29	1.1273547
222	0x3f81151e	1.008457
223	0xbddb7d2f	-0.10717236
224	0xbe9925a5	-0.29911533
225	0xbf65df2e	-0.8979367
226	0x3eb479ea	0.35249263
227	0xbf9d1a6e	-1.2273691
228	0xbf125f97	-0.5717711
229	0x3eca67a6	0.39532202
230	0x3ec47b5f	0.38375375
231	0x3eb04104	0.34424603
232	0xbf7d7fea	-0.99023306
233	0x3ee989c5	0.45612922
234	0x3eb77144	0.35828602
235	0x3ed06fa7	0.40710184
236	0x3ea105a8	0.31449628
237	0xbd81921b	-0.063266955
238	0xbf8c65b5	-1.0968539
239	0xbfa58ecf	-1.2934207
240	0xbe344bb9	-0.17607011
241	0x3ecbc6bd	0.39800063
242	0xbead5f1c	-0.33861625
243	0x3d8795ed	0.06620393
244	0x3db1f200	0.08688736
245	0xbf86e474	-1.0538468
246	0x3f59b5f5	0.8504327
247	0x3eb8c189	0.36085156
248	0x3e579db6	0.21056256
249	0xbf315f8d	-0.69286424
250	0xbe16e3e5	-0.14735372
251	0xbeffcf5e	-0.49962896
252	0xbeb79341	-0.35854533
253	0xbe9278dd	-0.28607836
254	0x3f7139bf	0.9422874
255	0xbe5bdd99	-0.21471252

rnn.rnn.0.V f4 [128, 128]
0	0x3cfd9792	0.030956063
1	0xbdb8e5aa	-0.0902818
2	0xbdc695bf	-0.096965306
3	0xbc998896	-0.018741887
4	0xbda99cc7	-0.08281856
5	0x3daefec7	0.08544689
6	0xbe26c284	-0.1628514
7	0xbc35db51	-0.011099652
8	0xbe1c6de4	-0.15276295
9	0x3d9650db	0.07339641
10	0xbe53991b	-0.20663874
11	0x3d789813	0.060691904
12	0xbd6f0d0a	-0.058362044
13	0xbe2d8be3	-0.16947894
14	0xbd0eb4c2	-0.034840353
15	0xbdac8e30	-0.084255576
16	0xbe0b0732	-0.13576964
17	0xbafe15e0	-0.0019385181
18	0x3d38dc47	0.045131948
19	0x3cf52ecc	0.029929541
20	0xbd5e8b30	-0.05433196
21	0x3ec07c63	0.375949
22	0x3da15953	0.07878365
23	0x3da4c6ea	0.08045752
24	0xbdb977c1	-0.09056044
25	0x3be582b0	0.0070041046
26	0x3bf41777	0.0074490863
27	0x3dcdead0	0.100545526
28	0x3dd11d68	0.10210687
29	0xbdaca080	-0.084290504
30	0x3d8db75c	0.06919739
31	0x3e8de5b6	0.27714318
32	0xbdd35a2f	-0.103199355
33	0xbd0faba9	-0.035075817
34	0xbdb8bd28	-0.09020454
35	0x3dcd701c	0.10031149
36	0xbcdaa7a7	-0.026691271
37	0x3ced9ee1	0.029006423
38	0x3db6b807	0.08921819
39	0x3df6cc85	0.12050728
40	0xbe61117a	-0.21979323
41	0x3dddcfdd	0.108306624
42	0xbd945b7a	-0.0724401
43	0xbdb046a3	-0.08607223
44	0xbd81f857	-0.06346195
45	0xbc8d75b7	-0.017268045
46	0x3b25716a	0.0025244602
47	0x3c798d34	0.015231419
48	0x3cd5d3d5	0.026101986
49	0x39c19ef0	0.00036930246
50	0xbdbacf5c	-0.09121582
51	0xbce0a824	-0.027423926
52	0x3e289b32	0.16465452
53	0xbd856f34	-0.06515351
54	0xbd9ab27a	-0.07553573
55	0xbda72a7e	-0.081624016
56	0xbb2ba4a4	-0.0026190663
57	0xbd925208	-0.071445525
58	0xbb00f5c4	-0.0019677738
59	0xbd079ea2	-0.03311027
60	0x3c800c62	0.015630905
61	0xbd438554	-0.047734573
62	0xbe0d6a7b	-0.1381015
63	0x3d3a413c	0.04547237
64	0xb75c2300	-1.3121171e-05
65	0x3d213bbc	0.039363608
66	0x3e7ea9f7	0.24869524
67	0xbe05de1a	-0.13073006
68	0xbe4403a3	-0.19142012
69	0xbdb3e69c	-0.087842196
70	0x3cab0d08	0.020880237
71	0x3dd58021	0.10424829
72	0xbe3b8376	-0.18311867
73	0x3da69443	0.081337474
74	0x3de49bf5	0.11162559
75	0xbd5c4b2b	-0.053782623
76	0x3c881f50	0.016616493
77	0x3d051854	0.032493904
78	0x3d75d1fb	0.060014706
79	0xbcaa4c90	-0.020788461
80	0xbd2bbe50	-0.041929543
81	0xbcef6c92	-0.029226575
82	0x3e0dbc69	0.13841404
83	0x3d006ab5	0.031351764
84	0x3c8025b6	0.015642982
85	0x3df404a6	0.11914949
86	0xbdfb7aa2	-0.1227925
87	0xbd9cf81a	-0.07664509
88	0xbcf48633	-0.029849147
89	0x3cf316f5	0.029674033
90	0x3cbc6c56	0.023000877
91	0xbd5c0c1d	-0.05372249
92	0x3e1c7eef	0.15282796
93	0xbd97b713	-0.074079655
94	0x3d1143c7	0.035465028
95	0xbbafeebe	-0.0053690365
96	0x3c96a626	0.018389773
97	0x3d84b534	0.06479874
98	0xbda572aa	-0.08078511
99	0x3d80e775	0.06294147
100	0xbe81c80f	-0.25347945
101	0x3e4c214d	0.19934578
102	0xbd2514bb	-0.040302973
103	0x3dae445b	0.085091315
104	0x3d8ba147	0.068178706
105	0x3dbfa58d	0.09357748
106	0xbc306054	-0.010765154
107	0x3db8c733	0.09022369
108	0xbdb2568c	-0.08707914
109	0x3e10039c	0.14063877
110	0x3db20b63	0.08693578
111	0xbd51b8b5	-0.05120154
112	0x3dc79791	0.09745706
113	0xbd44b445	-0.04802348
114	0x3c942a96	0.018086713
115	0xbd8b25d9	-0.06794328
116	0x3d9f1464	0.07767561
117	0xbd00a148	-0.03140381
118	0x3da6610c	0.08123979
119	0xbe533d6e	-0.20628902
120	0x3cf08cf3	0.029364085
121	0xbe4bc60b	-0.19899766
122	0xbd460edb	-0.04835401
123	0x3e26d3d8	0.1629175
124	0xbd2712c2	-0.040789373
125	0x3cc0ae05	0.023520479
126	0x3df77dd3	0.12084546
127	0xbc7e68d2	-0.015527921
128	0xbd46947d	-0.048481453
129	0x3d5b41b6	0.053529464
130	0x3c225018	0.009906791
131	0x3dcc03e0	0.099616766
132	0xbe5acb1c	-0.21366543
133	0xbe9222a2	-0.28542048
134	0xbe3ccfad	-0.18438597
135	0x3cfa075b	0.030521085
136	0xbda07c3c	-0.07836196
137	0x3e0ac984	0.13553435
138	0xbdba8b82	-0.0910864
139	0xbe107eca	-0.14110866
140	0x3d8682ef	0.06567942
141	0xbd71d4e9	-0.059040938
142	0x3c3fd596	0.011708638
143	0xbd3a4808	-0.04547885
144	0xbca4ac01	-0.02010155
145	0x3c71dc4e	0.014761997
146	0x3cae5599	0.02128105
147	0x3dd5ac4c	0.10433254
148	0xbd269b34	-0.040675357
149	0xbca03ffa	-0.019561756
150	0xbe9f998d	-0.31171837
151	0x3db13d96	0.08654325
152	0xbe140b2f	-0.14457391
153	0x3e046c84	0.1293202
154	0xbd157d7a	-0.036496617
155	0x3c018992	0.0079063345
156	0x3ed16e46	0.40904444
157	0xbf05508a	-0.5207602
158	0xbe87f439	-0.26553515
159	0xbe7e6ffe	-0.24847409
160	0x3dd67796	0.10472028
161	0x3b572d79	0.00328335
162	0xbd827828	-0.06370574
163	0xbdbc65f0	-0.091991305
164	0xbdfaffb0	-0.122558
165	0xbd3f2926	-0.0466701
166	0x3d27c841	0.04096246
167	0x3cfe1181	0.031014206
168	0x3e20bc84	0.15696913
169	0x3e481aa6	0.19541416
170	0x3e922fa6	0.28551978
171	0xbe32960e	-0.17440054
172	0x3d25190f	0.0403071
173	0x3cb55101	0.022133352
174	0x3e2d4fc8	0.16924965
175	0x3d07626d	0.03305285
176	0x3dbcd78a	0.09220798
177	0x3d65a932	0.05606956
178	0xbd54fe17	-0.05200013
179	0x3e67983f	0.22616671
180	0x3dab19a0	0.08354497
181	0x3e214031	0.15747143
182	0xbd9db64f	-0.07700788
183	0x3e79438d	0.24342175
184	0xbd6a27db	-0.057166915
185	0xbe6409ad	-0.22269316
186	0xbd3f1ad5	-0.04665645
187	0xbcf4bb4a	-0.029874463
188	0x3d807022	0.06271388
189	0x3d17975f	0.037009593
190	0xbea050f5	-0.31311765
191	0xbe0fc72b	-0.1404082
192	0xbd08d120	-0.033402562
193	0x3c0f7fc3	0.008758488
194	0xbe40d9fd	-0.18833156
195	0x3c5f181f	0.013616591
196	0xbe8e190a	-0.27753478
197	0xbd12f95f	-0.03588235
198	0xbe572bb2	-0.21012762
199	0x3c827cbf	0.015928624
200	0xbd8d772c	-0.06907496
201	0x3d4516a9	0.048117314
202	0xbe370dff	-0.17876433
203	0xbda43510	-0.08017933
204	0x3de86d3f	0.11348962
205	0x3d84ad86	0.064784095
206	0x3db80fe9	0.089874096
207	0x3e8b653d	0.27225676
208	0x3d668eda	0.056288578
209	0x3d40126e	0.046892576
210	0xbd677506	-0.056508087
211	0xbe2e98e7	-0.17050515
212	0x3d951a83	0.07280447
213	0xba31a118	-0.0006776019
214	0xbdd47c35	-0.10375253
215	0xbe282e02	-0.164238
216	0x3d8bde41	0.06829501
217	0x3d3a3447	0.04546001
218	0x3dd024bb	0.10163256
219	0x3da573cf	0.08078729
220	0xbdbd1117	-0.09231775
221	0x3c993877	0.018703682
222	0xbd46fb16	-0.048579298
223	0x3e920522	0.2851954
224	0x3e2c87cf	0.16848682
225	0x3deed613	0.11661925
226	0x3e0ca535	0.13734896
227	0x3dd9990b	0.10624894
228	0x3df08eb9	0.11745972
229	0xbd32381b	-0.043510538
230	0xbe337f83	-0.1752911
231	0xbe12bc14	-0.14329559
232	0x3ddef470	0.108864665
233	0xbe27faab	-0.16404216
234	0xbe340987	-0.1758176
235	0xbd8f501e	-0.06997703
236	0xbd864d49	-0.0655771
237	0x3d84d1b2	0.06485309
238	0x3aed7bc8	0.0018118555
239	0x3d801509	0.06254012
240	0xbe6b6e35	-0.2299126
241	0x3d47517e	0.0486617
242	0x3cc98670	0.024600238
243	0xbdd4e244	-0.10394719
244	0xbc8c600c	-0.017135642
245	0xbd277d74	-0.040891126
246	0x3aaf3230	0.0013366397
247	0x3c2b5812	0.010458009
248	0x3e839aea	0.25704128
249	0xbce60bc6	-0.028081786
250	0xbd5c0b05	-0.053721447
251	0x3e689cd0	0.22716069
252	0x3e7197ab	0.23593013
253	0xbe104b79	-0.1409129
254	0xbd905c0f	-0.07048809
255	0x3daa710d	0.08322344

rnn.rnn.0.b f4 [128]
0	0x3eb5d113	0.35511073
1	0x3d9ba9b6	0.07600729
2	0xbe2383bd	-0.15968223
3	0xbd15d73e	-0.036582224
4	0xbe97c1fb	-0.29640183
5	0xbdfb5e0a	-0.12273796
6	0x3e1fbddc	0.1559977
7	0x3e895a75	0.26826826
8	0x3e327573	0.17427616
9	0x3ea02587	0.3127863
10	0xbe60f476	-0.21968254
11	0x3e090259	0.13379802
12	0x3c831288	0.016000047
13	0xbda2417c	-0.079226464
14	0x3e163d24	0.14671761
15	0xbdfd214c	-0.123598665
16	0xbda1f3b5	-0.079078116
17	0x3d4a821e	0.049440496
18	0xbe61364b	-0.21993367
19	0x3cf76a66	0.030202102
20	0x3e044a3e	0.12918946
21	0x3eaec820	0.34137058
22	0x3f1de676	0.6167978
23	0xbd96640f	-0.073433034
24	0xbe18bb28	-0.14915144
25	0xbe5361d8	-0.20642793
26	0x3daf49c7	0.08558994
27	0xbd9418fa	-0.072313264
28	0x3d7110f5	0.058854062
29	0x3dc60567	0.09668999
30	0xbd3d662d	-0.04624002
31	0x3ebf2ad0	0.3733735
32	0x3ee2e741	0.44317058
33	0xbe34e6e2	-0.176662
34	0x3ed67fd9	0.41894415
35	0x3be8af18	0.007100951
36	0xbeac971f	-0.33709046
37	0x3ca1e859	0.019764112
38	0x3da020b3	0.07818737
39	0xbe4d9f88	-0.20080388
40	0xbe8b38a7	-0.2719166
41	0xbcbd1a79	-0.023083912
42	0x3e1507b1	0.14553715
43	0xbdc10809	-0.09425361
44	0x3dbe55a7	0.09293681
45	0xbd997d03	-0.07494547
46	0x3e3f98ed	0.1871068
47	0xbe85d85a	-0.26141626
48	0x3e680ceb	0.22661178
49	0x3d5b5aea	0.0535535
50	0x3e1e44c3	0.15455918
51	0xbdf16dc0	-0.11788511
52	0x3d87caa7	0.0663045
53	0xbd70be28	-0.058775097
54	0xbcc0f944	-0.02355636
55	0xbcb24a2b	-0.021763882
56	0x3da1fd5f	0.07909655
57	0x3e066a64	0.13126522
58	0x3ed43cdd	0.41452685
59	0x3e724bb9	0.23661698
60	0x3da4a9b0	0.08040178
61	0x3dc9632d	0.098333694
62	0xbec015cb	-0.37516627
63	0x3e014ba1	0.12626506
64	0x3d89ae20	0.06722665
65	0x3e6f1523	0.23347907
66	0x3ecfd763	0.40594015
67	0xbc7fcee5	-0.015613292
68	0x3e715684	0.2356816
69	0xbe9c6e5b	-0.30552945
70	0xbecd203b	-0.40063652
71	0xbe36a7cd	-0.17837448
72	0x3e9a5c48	0.3014853
73	0x3d85cd03	0.065332435
74	0x3ec566f2	0.38555104
75	0x3ce85932	0.028362844
76	0xbc9a0760	-0.018802345
77	0xbe643e5d	-0.22289415
78	0x3e839665	0.2570068
79	0xbe0f4755	-0.13992055
80	0xbd32417e	-0.04351949
81	0x3d6931b7	0.056932177
82	0xbd64a177	-0.055818047
83	0x3e8b8a40	0.27253914
84	0xbdbdf779	-0.09275717
85	0x3e13fbe5	0.14451559
86	0x3e428924	0.18997627
87	0x3e371fe1	0.17883255
88	0x3e39717a	0.18109694
89	0xbe0e7619	-0.13912238
90	0x3e03d913	0.12875776
91	0xbe2ffda6	-0.17186603
92	0x3f013b36	0.50480974
93	0xbe380bab	-0.17973201
94	0x3e123ee8	0.1428181
95	0xbec74bb0	-0.38924932
96	0x3e813375	0.2523457
97	0x3e20efac	0.15716428
98	0xbe997fe6	-0.2998039
99	0x3ef9ca8c	0.48787344
100	0xbf03db8e	-0.5150689
101	0x3e48732a	0.19575182
102	0x3cb476fc	0.022029392
103	0x3d4a9d50	0.04946643
104	0xbdd099c1	-0.10185576
105	0x3db9e163	0.09076192
106	0xbdad7e5f	-0.08471369
107	0xbe468712	-0.19387463
108	0xbeb01fe8	-0.34399343
109	0x3c0279a6	0.007963574
110	0xbc819c11	-0.015821489
111	0x3cae3ec3	0.021270161
112	0x3e60ff85	0.21972473
113	0x3ddb3ae1	0.1070459
114	0x3e4d7d38	0.20067298
115	0x3d690a10	0.056894362
116	0x3e04b2b1	0.1295879
117	0xbebb9944	-0.3664037
118	0x3ba1c3a9	0.0049366546
119	0xbe96e998	-0.29475093
120	0x3ea163bc	0.31521404
121	0x3e87e2c3	0.26540193
122	0xbe2d7a7a	-0.16941252
123	0x3c6a3497	0.014294765
124	0xbd597c96	-0.05309733
125	0x3e2342c9	0.15943445
126	0xbe3e0e9f	-0.18560265
127	0x3d5a9a98	0.05337009

rnn.rnn.1.W f4 [128, 128]
0	0xbe234c43	-0.1594706
1	0xbd1233ac	-0.03569381
2	0xbd168983	-0.036752235
3	0xbe96d8cf	-0.29462287
4	0xbe8623a7	-0.26199076
5	0xbd500c0c	-0.05079274
6	0x3e2145a2	0.15749219
7	0xba2bcaac	-0.0006553333
8	0xbdaba3d9	-0.08380861
9	0xbbb24ccc	-0.005441284
10	0xbde66387	-0.11249452
11	0xbd15e1d9	-0.03659234
12	0xbd69f950	-0.05712253
13	0xbdda6a23	-0.10664775
14	0xbe06e49b	-0.13173144
15	0x3dd35367	0.10318642
16	0x3eab041c	0.33401573
17	0xbd72fa7f	-0.059320923
18	0xbe9322b0	-0.28737402
19	0xbd0806ff	-0.033209797
20	0xbe1f01bf	-0.1552801
21	0xbd350355	-0.04419263
22	0xb9ffc8a8	-0.0004878689
23	0x3e177d87	0.14793979
24	0x3d1032ea	0.035204805
25	0xbda3899f	-0.079852335
26	0x3daea808	0.08528143
27	0xba7fa9b0	-0.00097527634
28	0xbdaf8dd2	-0.08571972
29	0xbcd7c400	-0.026338577
30	0xbd1f9dc4	-0.038968816
31	0x3da68e8f	0.0813266
32	0xbe2598af	-0.16171525
33	0xbdc58684	-0.096447974
34	0x3ca127fe	0.01967239
35	0xbd12b75a	-0.03581939
36	0x3d71e87f	0.059059616
37	0xbc70c234	-0.014694739
38	0x3b8c93d2	0.0042900825
39	0x3e4930e1	0.19647552
40	0x3ec3ce86	0.38243502
41	0x3e0955f2	0.13411692
42	0x3d91ef20	0.071256876
43	0x3e069c7b	0.1314563
44	0x3da154a9	0.07877476
45	0x3e257a23	0.16159873
46	0x3df24167	0.11828881
47	0xbdea4f60	-0.11440921
48	0xbc044000	-0.008071899
49	0x3d397ae5	0.045283217
50	0x3dd4a8be	0.103837475
51	0x3bd0ce02	0.0063722143
52	0x3df5c93c	0.12001273
53	0x3e1cdb19	0.15317954
54	0x3de5a695	0.112134136
55	0xbcc84c6a	-0.0244505
56	0x3d81137e	0.06302546
57	0xbdc097b2	-0.094039336
58	0xbe1c0a57	-0.1523832
59	0x3e4975c4	0.1967383
60	0x3e1ff84e	0.15622064
61	0x3d74f8f4	0.059807733
62	0xbd285180	-0.04109335
63	0xbd36daa4	-0.044642106
64	0x3e434a61	0.19071342
65	0xbe084cb7	-0.13310514
66	0x3d18cfaa	0.03730742
67	0x3c7c2f22	0.015392097
68	0x3d024855	0.031807262
69	0xbda8ba6e	-0.08238684
70	0x3d954b36	0.07289736
71	0x3eb6eb40	0.35726357
72	0x3c8acd8a	0.016943712
73	0x3cb339b3	0.0218781
74	0x3d96e720	0.07368302
75	0xbd38189a	-0.044945337
76	0x3b958b49	0.004563723
77	0xbd4a677d	-0.0494151
78	0xbde26980	-0.11055279
79	0x3e8a1cd9	0.26975134
80	0xbdc44e89	-0.09585292
81	0x3d483489	0.048878226
82	0xbe7150f7	-0.23566042
83	0xbab8c8d9	-0.0014097943
84	0xbdaa54f5	-0.083169855
85	0xbc4578fd	-0.012052772
86	0xbd39e29d	-0.04538213
87	0x3e9b0c4d	0.30282822
88	0xbd8db5d2	-0.06919445
89	0xbbd9d514	-0.0066477153
90	0x3e3255a7	0.17415486
91	0xbaaab81c	-0.001302484
92	0x39896f8a	0.0002621378
93	0xbe4f6ab3	-0.20255546
94	0xbbbc3b86	-0.0057444004
95	0x3dc4f90f	0.09617817
96	0x3c8cadda	0.017172743
97	0xbdffc379	-0.12488455
98	0xbd46221e	-0.04837238
99	0x3dd633a5	0.10459069
100	0x3cb55bec	0.022138558
101	0x3dcb1cb9	0.09917588
102	0xbc81d022	-0.015846316
103	0xbdf05869	-0.11735613
104	0xbd6b7155	-0.05748113
105	0xbe335611	-0.175133
106	0x3d5484e3	0.051884543
107	0x3eba708e	0.36413997
108	0xbe3286b6	-0.174342
109	0xbd9bfb67	-0.076163106
110	0x3d03f8e9	0.0322198
111	0xbdd45cb3	-0.103692435
112	0xbe2a90a1	-0.16656734
113	0x3e8be014	0.27319396
114	0x3e2b9513	0.16756086
115	0xbd568a68	-0.05237809
116	0x3d73ca42	0.05951906
117	0x3d5f0e72	0.054457135
118	0x3d2eb3eb	0.042652052
119	0xbe724aad	-0.23661299
120	0xbe057ada	-0.13035145
121	0x3d3cae07	0.046064403
122	0x3d7d49e6	0.061838053
123	0xbd3bdd22	-0.045865186
124	0xbc0b7b10	-0.008513227
125	0x3b479aa4	0.0030457163
126	0x3e7ffc6f	0.2499864
127	0x3d5da8a4	0.054115906
128	0xb71e2740	-9.4266725e-06
129	0x3e123daa	0.14281335
130	0x3ce15eed	0.027511084
131	0x3e5c3c56	0.21507391
132	0x3e0777fa	0.13229361
133	0x3dc92988	0.098223746
134	0x3e1be524	0.15224129
135	0x3dac047b	0.08399292
136	0xbec4d976	-0.3844716
137	0x3d93f608	0.07224661
138	0x3d5eaefe	0.054366104
139	0xbca4dac3	-0.020123845
140	0xbcb027fc	-0.021503441
141	0x3e2c66e7	0.16836129
142	0x3de30f88	0.11086947
143	0xbdd8ca26	-0.10585432
144	0xbe855c5c	-0.26047027
145	0xbed06a3a	-0.40706044
146	0xbe48d445	-0.19612224
147	0xbdbefa88	-0.09325129
148	0x3caa4651	0.020785483
149	0x3e6e7863	0.23288111
150	0x3e303453	0.1720746
151	0xbc307993	-0.010771173
152	0x3c23c6b0	0.009996101
153	0x3cba6ca0	0.022756875
154	0xbe2b0b5e	-0.16703555
155	0xbcf05e30	-0.029341787
156	0xbc2a28b6	-0.010385683
157	0x3d98e943	0.07466366
158	0x3e138629	0.14406647
159	0xbd1534b9	-0.036427233
160	0xbcf761d8	-0.030198023
161	0xbe342841	-0.1759348
162	0xbdab0883	-0.08351233
163	0xbd128897	-0.035774793
164	0x3d8ba7b2	0.06819095
165	0x3d1a660a	0.03769497
166	0x3e3857ee	0.18002293
167	0xbe06f25c	-0.1317839
168	0x3e878248	0.26466584
169	0x3e513392	0.20429829
170	0xbd9a5de4	-0.075374395
171	0x3d9259aa	0.07146008
172	0xbe10af5a	-0.14129391
173	0x3ed7533b	0.42055687
174	0xbe19a743	-0.15005212
175	0x3dd1fca6	0.10253267
176	0xbd7db75b	-0.06194244
177	0xbe40e62a	-0.188378
178	0xbd4398f0	-0.047753274
179	0xbc8b51d8	-0.0170068
180	0xbe408bc8	-0.18803322
181	0x3d86af59	0.06576414
182	0xbc2cf3c2	-0.010556163
183	0x3e13f167	0.14447556
184	0x3d53cfbb	0.05171178
185	0x3e9d3aeb	0.30709013
186	0xbe9b265c	-0.30302703
187	0x3e3fd1ac	0.18732327
188	0x3d6aef7b	0.057357293
189	0xbc2725e0	-0.010201901
190	0xbdcd884e	-0.10035764
191	0x3cdd4b58	0.027013466
192	0x3cd26af7	0.02568577
193	0xbc822aac	-0.015889488
194	0x3d885744	0.066572696
195	0x3ca771c0	0.020439982
196	0xbc8b7157	-0.017021818
197	0xbe3dcdc6	-0.18535528
198	0xbdf639b4	-0.12022725
199	0xbde7669f	-0.1129887
200	0x3d548980	0.051888943
201	0xbdabb366	-0.08383827
202	0xbdaf3980	-0.08555889
203	0x3de511dd	0.11185048
204	0xbc96e52a	-0.01841982
205	0x3e07b969	0.13254322
206	0x3ce3061c	0.027712874
207	0xbe3ed135	-0.18634494
208	0xbde98040	-0.11401415
209	0xbe7a2894	-0.24429542
210	0x3e3a5a29	0.18198456
211	0x3e0a6148	0.13513672
212	0xbd4d8be7	-0.05018225
213	0xbd4c80b9	-0.049927447
214	0xbdb7761d	-0.08958075
215	0xbeb799db	-0.3585957
216	0x3bb1fc00	0.005431652
217	0xbc80b22f	-0.015709965
218	0xbdcda21b	-0.10040685
219	0xbd8ee1d9	-0.06976671
220	0xbe0d9f8b	-0.13830392
221	0xbe99101e	-0.2989511
222	0x3e8de6de	0.277152
223	0xbe49653b	-0.19667523
224	0xbd4be938	-0.04978296
225	0x3ebf2341	0.37331584
226	0x3dac54eb	0.08414634
227	0xbe566ba7	-0.20939504
228	0xbc1ac345	-0.00944597
229	0xbc3d06a7	-0.011537231
230	0x3b8dc04a	0.004325901
231	0x3dec205b	0.11529609
232	0xbcdfe1db	-0.027329376
233	0x3ddd3fa8	0.10803157
234	0x3e3de029	0.18542542
235	0xbde99455	-0.11405245
236	0x3d3d7de4	0.046262637
237	0xbd8aa1c6	-0.06769137
238	0xbee030d5	-0.43787256
239	0xbe1190e6	-0.1421543
240	0x3e9ab557	0.30216476
241	0x3e8b093a	0.27155477
242	0x3e95d022	0.29260355
243	0x3e0ae96f	0.1356561
244	0xbcc2e88b	-0.023792526
245	0xbd047e96	-0.032347284
246	0x3e448c5d	0.1919417
247	0x3e94cd7c	0.29063022
248	0xbe7ad81a	-0.24496499
249	0x3da8d311	0.08243383
250	0x3e39d25d	0.18146653
251	0x3e92c667	0.28666994
252	0x3d1f05ff	0.038824078
253	0xbd996afe	-0.0749111
254	0xbddefa03	-0.1088753
255	0xbc90950f	-0.017649202

rnn.rnn.1.V f4 [128, 128]
0	0xbe25c314	-0.16187698
1	0x3dbea3a8	0.09308559
2	0xbdcdcdd5	-0.10049025
3	0x3c0c44b8	0.008561306
4	0x3cece79a	0.02891903
5	0x3cd1b877	0.025600655
6	0xbd4a07cb	-0.04932384
7	0xbd8ec190	-0.06970513
8	0xbcf39f61	-0.029739084
9	0x3dbd5480	0.09244633
10	0xbdf889d1	-0.121356614
11	0x3dac6ae5	0.08418826
12	0xbd988d59	-0.07448835
13	0xbc07f525	-0.008298193
14	0x3d3566af	0.04428738
15	0x3e08cada	0.13358632
16	0xbc47920b	-0.012180815
17	0xbd86ccce	-0.06582032
18	0x3c0d22ec	0.008614283
19	0x3caa43ec	0.02078434
20	0x3e427adc	0.1899218
21	0xbc5e9fa2	-0.013587864
22	0xbb0cd8aa	-0.0021491447
23	0x3d63df01	0.055632595
24	0xbe835a11	-0.25654653
25	0xbd0215f7	-0.03175923
26	0x3b9ea6d3	0.0048416643
27	0x3e1333be	0.14375207
28	0x3da2f528	0.07956916
29	0x3e458f3f	0.19292925
30	0xbe15a2bd	-0.14612861
31	0x3c96f65e	0.018428024
32	0x3caadddf	0.02085775
33	0xbb9287a5	-0.0044717365
34	0xbd2169e1	-0.039407615
35	0xbd977174	-0.07394686
36	0x3ca002ee	0.019532647
37	0x3dff533e	0.12467049
38	0x3cb10d04	0.021612652
39	0xbb290384	-0.002578945
40	0xbd1f5f14	-0.038909033
41	0x3ca22f0a	0.01979782
42	0xbda7c010	-0.0819093
43	0x3cc20394	0.023683347
44	0x3e01b3ad	0.12666197
45	0x3c9711f9	0.018441187
46	0xbbb3ea80	-0.005490601
47	0x3cfac16f	0.030609814
48	0x3e0f1af4	0.13975126
49	0xbce6aab3	-0.028157568
50	0x3d979571	0.074015506
51	0x3d644b2b	0.05573575
52	0x3d24d9bd	0.040246714
53	0xbd4a2e67	-0.04936066
54	0x3d160d2b	0.03663365
55	0x3d864a0f	0.06557094
56	0x3de1b739	0.11021275
57	0x3c096ce6	0.00838778
58	0xbb987258	-0.0046523027
59	0x3ca92926	0.020649504
60	0xbcaa3fe8	-0.020782426
61	0xbd104e87	-0.03523114
62	0x3e1a925a	0.15094891
63	0xbe0413ae	-0.12898132
64	0x3a075248	0.0005162102
65	0xbdadc502	-0.08484842
66	0x3d4e5883	0.05037738
67	0x3dde9677	0.10868543
68	0xbd26ce0b	-0.04072384
69	0x3c767e9d	0.015044835
70	0xbc67bb2f	-0.014143749
71	0x3b29c086	0.0025902106
72	0x3cb36f6e	0.02190372
73	0x3c8ac9fb	0.016942015
74	0x3d8daf42	0.069181934
75	0x3c02802e	0.007965131
76	0x3ca1a29c	0.019730859
77	0x3b95e06d	0.004573873
78	0x3d8a6352	0.06757225
79	0xbd9057ca	-0.070479944
80	0xbe4f8fcc	-0.20269698
81	0xbc2c3156	-0.0105098095
82	0xbc4b3c7c	-0.012404557
83	0xbd27c421	-0.040958527
84	0x3d9459ec	0.07243714
85	0x3df742da	0.12073298
86	0xbd017019	-0.031601045
87	0x3b594ca4	0.0033157254
88	0x3c910d0d	0.017706418
89	0x3e482858	0.1954664
90	0x3e1157f0	0.14193702
91	0x3dbac30e	0.09119235
92	0xbc22759e	-0.009915737
93	0xbbba1c32	-0.0056796307
94	0x3c7087b9	0.014680796
95	0xbcfecb26	-0.031102728
96	0x3d1582f8	0.036501855
97	0xbd2ddc40	-0.042446375
98	0xbcb543eb	-0.022127112
99	0xbe1ef895	-0.15524514
100	0xbd415ce6	-0.047207735
101	0xbca3aee4	-0.019980855
102	0x3baa40db	0.0051957197
103	0xbdcf773a	-0.101301625
104	0x3d0e1368	0.034686476
105	0x3c2edf0d	0.010673297
106	0x3e0c8229	0.13721527
107	0xbc234909	-0.009966143
108	0x3d5b43d7	0.053531494
109	0x3e0480e5	0.12939794
110	0x3cbbccf7	0.022924883
111	0xbca407df	-0.020023284
112	0x3dafe5b1	0.08588732
113	0x3a925354	0.001116375
114	0x3c1ae1fe	0.009453295
115	0xbe10fbb7	-0.14158522
116	0xbcfa0010	-0.030517608
117	0xbe031183	-0.12799649
118	0x3d2959e6	0.0413455
119	0x3d390dd0	0.04517919
120	0xbc6350f2	-0.013874279
121	0x3c372ec6	0.011180585
122	0x3dc60bf3	0.09670248
123	0x3cfb819f	0.030701457
124	0x3d2d8a71	0.042368356
125	0x3cf9bd3a	0.030485738
126	0xbd34b124	-0.044114247
127	0xbc0dd175	-0.0086558955
128	0xbdc4aed0	-0.09603655
129	0xbe944e7a	-0.28966123
130	0x3caa86cb	0.020816227
131	0x3bbfbc07	0.005851272
132	0x3b1c7c6e	0.0023877877
133	0xbcea782c	-0.028621756
134	0x3bb0dcfc	0.005397437
135	0x3c25c09c	0.010116722
136	0x3c0050d0	0.007831767
137	0x3e216eb3	0.15764885
138	0xbdd4cbe1	-0.10390449
139	0xbda25d18	-0.079279125
140	0xbc9d133a	-0.019174207
141	0xbc90f73e	-0.01769602
142	0xbe1056ff	-0.14095686
143	0xbcd3aed2	-0.025840197
144	0xbcb131a1	-0.02163011
145	0x3c1e5b27	0.009665287
146	0xbca3812c	-0.019959055
147	0xbcb74e7e	-0.022376295
148	0xbdb126c3	-0.08649971
149	0xbc5eb763	-0.0135935275
150	0xbe2e2b6f	-0.17008756
151	0xbdf7b569	-0.12095148
152	0xbc8e45b2	-0.017367218
153	0xbd3f2065	-0.046661753
154	0xbd79f67e	-0.06102609
155	0xbd53eab9	-0.05173752
156	0x3c32bad9	0.010908806
157	0xbd3387dc	-0.043830737
158	0x3dc7b922	0.09752108
159	0x3d4b66dd	0.049658645
160	0xbd34c10b	-0.044129413
161	0x3b8c34fe	0.004278778
162	0x3cbb6442	0.022874955
163	0x3d39e22d	0.045381714
164	0xbc1f3f5b	-0.009719695
165	0xbd0d6bd0	-0.034526646
166	0xbc594133	-0.013260174
167	0x3cb08036	0.02154551
168	0x3d058398	0.0325962
169	0xbd06f54e	-0.032948785
170	0xbd0627ec	-0.032752916
171	0xbb5fdadc	-0.003415755
172	0x3c7a591c	0.015280034
173	0xbc163f31	-0.009170339
174	0x3d4c1777	0.049827065
175	0x3d52bf28	0.051451832
176	0x3d3e671b	0.046485048
177	0x3bec3ff0	0.0072097704
178	0x3c2bebc6	0.0104932245
179	0xbd5a6e95	-0.053328115
180	0x3cc892f3	0.024484133
181	0x3cacfad5	0.0211157
182	0x3e0a9049	0.13531603
183	0xbcaa3fd9	-0.020782398
184	0xbc36a38c	-0.011147391
185	0x3c8f4b3e	0.017491933
186	0x3c325b78	0.010886066
187	0xbd6d76c1	-0.05797458
188	0xbc3784e1	-0.011201114
189	0xbc56188b	-0.013067375
190	0x3c8df2ed	0.01732775
191	0xbd12bc06	-0.035823844
192	0xbcf78763	-0.030215925
193	0xbdf39a55	-0.11894671
194	0xbdeb20be	-0.114808545
195	0xbd253ab3	-0.040339183
196	0x3bbc4611	0.0057456573
197	0xbcb828d2	-0.022480402
198	0x3c827dbe	0.0159291
199	0x3d0f231f	0.034945603
200	0xbe05bb0e	-0.13059637
201	0x3cab4b90	0.020910054
202	0xbd1d6d8e	-0.038434558
203	0x3e279963	0.16367106
204	0x3d35a608	0.044347793
205	0x3c60b5c9	0.013715216
206	0x3dae21b3	0.08502521
207	0x3c6db76e	0.014509065
208	0x3d386126	0.045014523
209	0xbc360b52	-0.011111097
210	0x3d2a8c8c	0.041637942
211	0x3b90fa7d	0.004424392
212	0xbcdea1b3	-0.027176714
213	0xbc87cb83	-0.016576534
214	0xbcf06784	-0.029346235
215	0x3cfdd838	0.03098689
216	0xbdd900e4	-0.10595873
217	0x3b9d6878	0.0048037134
218	0xbc7d5036	-0.015461018
219	0x3d93aea3	0.07211044
220	0x3c85dbdf	0.016340194
221	0x3c008c95	0.007846017
222	0xbaeb6497	-0.0017959055
223	0x3e188139	0.14893045
224	0x3d1e7862	0.038689025
225	0xbb7e1562	-0.003877007
226	0xbac88a86	-0.0015300072
227	0x3e211384	0.15730101
228	0xb9c13ac4	-0.00036855612
229	0x3cf7ca3c	0.0302478
230	0xbd7b389e	-0.06133329
231	0xbc8a260a	-0.016863842
232	0xbc9e11ed	-0.019295657
233	0xbc755b6b	-0.014975409
234	0x3d8d56d6	0.06901328
235	0xbcf107e6	-0.029422712
236	0xbaa11a4d	-0.0012291163
237	0xbd6f1303	-0.05836774
238	0xbc33fba1	-0.010985286
239	0xbd0b94be	-0.0340774
240	0xbcb8c2c7	-0.022553815
241	0xbb5d6625	-0.0033782807
242	0xbca7ebb9	-0.020498144
243	0x3d1b7fe3	0.03796376
244	0x3cd8c982	0.026463274
245	0xbc4332e3	-0.011913988
246	0xbd4bbf9c	-0.04974328
247	0x3b139022	0.002251633
248	0x3cd63f2c	0.02615317
249	0xbccc4d54	-0.024939217
250	0x3d88b18b	0.06674489
251	0xbcc5f30d	-0.024163747
252	0x3ce42c70	0.02785322
253	0xbcb87700	-0.022517681
254	0xbd9867a8	-0.07441646
255	0x3c3a434c	0.011368584

rnn.rnn.1.b f4 [128]
0	0xbdcf07fb	-0.10108944
1	0xbce07813	-0.027401006
2	0x3d827c54	0.0637137
3	0x3b96b58b	0.0045992783
4	0xbd8f43aa	-0.06995328
5	0xbd870103	-0.0659199
6	0x3da66304	0.081243545
7	0x3c84a324	0.016191073
8	0xbdcdd19a	-0.10049744
9	0x3d90fac7	0.07079082
10	0xbd8122d6	-0.063054726
11	0xbd6856e5	-0.056723494
12	0xbdbf5c56	-0.093437836
13	0xb9ce04ac	-0.00039294863
14	0xbd1ada78	-0.037806004
15	0xbd1f7101	-0.03892613
16	0x3d618ac6	0.055063985
17	0x3e4ed3f1	0.20198037
18	0xbbab0cb6	-0.005220021
19	0x3ddbda5b	0.107350074
20	0xbd19b891	-0.037529532
21	0x3db483f9	0.08814234
22	0x3a48fad8	0.0007666773
23	0x3c7e666e	0.015527351
24	0x3c9de31d	0.019273335
25	0xbd5d4ced	-0.05402844
26	0x3d0aba87	0.033869293
27	0x3c840d80	0.016119719
28	0xbe089549	-0.13338198
29	0xbdcb7fce	-0.09936486
30	0x3d655eca	0.0559986
31	0x3e06421e	0.13111159
32	0xbd317270	-0.043322027
33	0x3d941648	0.07230812
34	0xbcc24d83	-0.023718601
35	0xbce2ef55	-0.027702013
36	0xbdc94c80	-0.09829044
37	0xbdeff3b6	-0.11716406
38	0xbd905a05	-0.0704842
39	0xbd00898e	-0.031381182
40	0x3d1aa92d	0.037758995
41	0xbe2461c6	-0.16052923
42	0x3d5d013e	0.053956263
43	0x3e075961	0.13217689
44	0x3d699e80	0.057035923
45	0xbd0d1b56	-0.034449898
46	0xbcc009ad	-0.023442114
47	0x3c9e4f0a	0.019324798
48	0x3c718b7d	0.014742729
49	0xbd31d628	-0.043417126
50	0x3d5b388a	0.053520717
51	0xbe0da666	-0.13833007
52	0xbd48cc4d	-0.04902296
53	0x3d17b033	0.03703327
54	0x3d90f6e3	0.0707834
55	0xbc8803d8	-0.016603395
56	0xbc160466	-0.009156322
57	0x3e22e63a	0.15908137
58	0xbd5faa8b	-0.054606
59	0x3cf3bc7f	0.029752968
60	0x3d4d8e46	0.05018451
61	0x3c7a49b9	0.015276366
62	0x3d23d844	0.04000117
63	0xbc7e4518	-0.015519403
64	0x3c418d7d	0.011813519
65	0xbd58b666	-0.052908324
66	0xbcc0f1e9	-0.023552852
67	0x3c9dd537	0.019266708
68	0x3ddebd25	0.1087592
69	0x3e09c051	0.13452269
70	0xbd89b2f5	-0.067235865
71	0x3e705e0c	0.23473376
72	0xbd8a9ece	-0.06768571
73	0x3e458d4d	0.19292183
74	0x3d1068a3	0.03525604
75	0x3c1458e3	0.009054395
76	0xbd8da53e	-0.06916283
77	0xbd9b8b1c	-0.075948924
78	0xbd5a9fc4	-0.05337502
79	0x3dbfab8f	0.09358894
80	0x3c858f87	0.01630379
81	0xbd5b3217	-0.053514566
82	0x3d961db0	0.07329881
83	0x3d878394	0.066168934
84	0xbd7d2be4	-0.061809435
85	0xbccabbd3	-0.024747765
86	0x3de311e2	0.11087395
87	0xbccc6ebc	-0.024955146
88	0xbdf46a2a	-0.11934312
89	0x3d983150	0.074312806
90	0x3c3ba38a	0.011452565
91	0x3c1d9de2	0.009620162
92	0x3da02604	0.07819751
93	0xbd393328	-0.045214802
94	0xbd3ad052	-0.045608826
95	0x3d6d4172	0.05792374
96	0xbda21500	-0.07914162
97	0xbbe41546	-0.006960544
98	0xba0411e8	-0.00050380686
99	0x3d12ce87	0.03584149
100	0x3ddd63c0	0.108100414
101	0x3e026c4c	0.12736624
102	0x3d23093c	0.03980373
103	0xbd5ee76e	-0.054419927
104	0xbd415050	-0.047195733
105	0xbd690731	-0.056891624
106	0xbb78ff9a	-0.0037994147
107	0xbd216747	-0.039405134
108	0x3d005ae9	0.0313367
109	0xbd3c0edd	-0.045912612
110	0xbe3a7477	-0.1820849
111	0xbe3a0cc8	-0.18168938
112	0x3b219f8a	0.0024661743
113	0xbda8f762	-0.082503095
114	0xbda0f98f	-0.078600995
115	0x3cf07de6	0.029356908
116	0x3df447e7	0.11927777
117	0x3df59a23	0.1199229
118	0x3cad91d3	0.021187698
119	0xbd59bf4f	-0.05316096
120	0xbcf242fa	-0.029572953
121	0xbcf509b8	-0.02991186
122	0x3cffd828	0.031231001
123	0x3d883d6a	0.06652339
124	0x3e124455	0.14283879
125	0x3d123bf7	0.03570172
126	0x3d709f0c	0.05874543
127	0x3df8193e	0.121141896

fc.weight f4 [66, 128]
0	0x3c236596	0.00997295
1	0x3d58121b	0.05275164
2	0xbbc982f5	-0.0061496445
3	0x3eae6e3e	0.34068483
4	0xbed50165	-0.41602626
5	0x3d1e413d	0.038636435
6	0x3e694583	0.22780423
7	0x3d2cc3b5	0.04217883
8	0x3e8f1702	0.2794724
9	0xbcaad2e3	-0.020852512
10	0x3c33e55f	0.010979979
11	0xbc575138	-0.013141923
12	0xbc52d58e	-0.012868298
13	0xbde4c020	-0.111694574
14	0xbcd89e7a	-0.026442755
15	0xbcdb8434	-0.026796438
16	0xbed22a3e	-0.41047853
17	0x3f497e1e	0.78708065
18	0xbd6485ca	-0.055791654
19	0xbdb8642b	-0.090034805
20	0xbcc0c4e7	-0.02353139
21	0x3ef5cb87	0.48006842
22	0x3d0bab86	0.034099124
23	0x3c96ce46	0.018408906
24	0x3d0366b9	0.032080386
25	0x3d8afad5	0.06786124
26	0x3ca09380	0.019601583
27	0xbb3010ea	-0.002686555
28	0xbe217bb5	-0.15769847
29	0x3ce36445	0.027757773
30	0x3d8ff42a	0.070289925
31	0x3de888c8	0.11354214
32	0xbde5571e	-0.11198257
33	0xbfb12926	-1.3840683
34	0x3cb836e5	0.022487113
35	0xbcc858a6	-0.024456333
36	0xbee5adbc	-0.4485911
37	0xbe498a7d	-0.19681735
38	0xbc3275e6	-0.010892367
39	0xbae975a3	-0.0017811548
40	0x3f18269c	0.59433913
41	0xbf5428fe	-0.8287505
42	0x3db39dbb	0.08770319
43	0x3eaec3b0	0.34133673
44	0xbc6e5ec6	-0.014548963
45	0x3f5b5ea2	0.85691273
46	0xbea7dd7c	-0.32786167
47	0x3c8dad39	0.017294513
48	0xbced0aa4	-0.028935738
49	0xbf05c3dc	-0.5225198
50	0x3b559164	0.003258788
51	0xbe349087	-0.17633258
52	0x3ddd520f	0.10806667
53	0xbec380e1	-0.38184264
54	0x3b834c70	0.004006915
55	0x3dc4f225	0.09616498
56	0x3d49bb71	0.049251024
57	0x3edd2e3f	0.43199345
58	0xbeeebde4	-0.4662925
59	0xbe358ab0	-0.17728686
60	0xbf33b7a5	-0.70202094
61	0xbd9fc4be	-0.078011975
62	0x3d3f1b0d	0.046656657
63	0x3d24a43a	0.04019568
64	0xbe07c742	-0.13259605
65	0xbca0e6fa	-0.019641388
66	0xbd3aeb3f	-0.045634504
67	0x3d07ef2e	0.033187084
68	0x3e30b7d7	0.1725763
69	0x3f2aae04	0.66671777
70	0x3ea614a2	0.32437617
71	0xbf18f5ff	-0.5975036
72	0x3c1f2df6	0.009715548
73	0xbf58f6ee	-0.84751785
74	0xbd0a966a	-0.033834852
75	0xbd456a6a	-0.048197187
76	0xbd023a4e	-0.031793885
77	0xbca1cd02	-0.019751076
78	0xbddc7f62	-0.10766484
79	0x3ecd974f	0.40154502
80	0xbd9febea	-0.07808669
81	0xbdfa87dc	-0.12232944
82	0x3e811715	0.25212923
83	0xbe6e6e53	-0.23284273
84	0x3b7c88ec	0.003853376
85	0xbd2f85ff	-0.042852398
86	0x3e404165	0.18774946
87	0xbe4a691d	-0.1976666
88	0x3c4b3db1	0.012404845
89	0xbc5dc944	-0.013536755
90	0x3d1858fa	0.03719423
91	0x3d6265ed	0.055272985
92	0x3df597af	0.11991822
93	0x3deb1b25	0.11479787
94	0xbd31ac10	-0.043376982
95	0x3c97f986	0.0185516
96	0xbe8fb6bf	-0.28069112
97	0x3d135217	0.03596696
98	0xb9f2bc6d	-0.00046298225
99	0x3c1ad2d3	0.0094496785
100	0x3dede28f	0.11615478
101	0x3e0266d8	0.12734544
102	0x3c464858	0.012102209
103	0xbd2c178b	-0.04201464
104	0x3f0e7d45	0.55659896
105	0x3f4a558a	0.7903677
106	0xbe3697af	-0.178313
107	0x3e00f582	0.12593654
108	0x3f0b54ec	0.54426455
109	0xbd938974	-0.072039515
110	0x3d50c56d	0.05096953
111	0x3eb7d9e6	0.3590843
112	0xbd10fc9d	-0.03539716
113	0x3eab5b7f	0.33468243
114	0x3ea6e1cd	0.32594147
115	0xbcfb616b	-0.030686101
116	0x3e09551c	0.13411373
117	0x3c7b9d5e	0.0153573435
118	0xbe95e4d7	-0.29276153
119	0x3e9e05ca	0.30863792
120	0xbdbc14bb	-0.091836415
121	0xbed1abaf	-0.40951297
122	0x3c0c3728	0.008558072
123	0x3ec4c6e0	0.3843298
124	0x3e04f106	0.12982568
125	0x3b1cc326	0.0023920028
126	0x3e1d1878	0.15341365
127	0x3dc642df	0.096807234
128	0xbc4be6c8	-0.012445159
129	0x3d28e6f7	0.04123589
130	0x3c9dea62	0.019276801
131	0x3ecc82a0	0.3994341
132	0x3e2d7831	0.1694038
133	0x3c9ed860	0.019390285
134	0xbe733baf	-0.23753236
135	0x3c067893	0.008207458
136	0x3f2b4377	0.6689982
137	0x3c892a13	0.016743695
138	0xbc8a0ac1	-0.016850831
139	0x3d65d88a	0.05611471
140	0xbc9c398a	-0.019070406
141	0x3c4ceadc	0.012507167
142	0x3b9b9299	0.0047477004
143	0xbd409f1b	-0.047026735
144	0x3e27a9bc	0.16373342
145	0x3f0e02ce	0.5547303
146	0xbce680f0	-0.028137654
147	0xbf43de8f	-0.7651147
148	0xbd2f87d2	-0.042854138
149	0x3e3bbc60	0.18333578
150	0x3d6f1b6b	0.058375757
151	0x3c3903ec	0.011292439
152	0xbb8f823a	-0.004379538
153	0x3d16ea76	0.036844693
154	0x3c9809c1	0.018559339
155	0x3ca89846	0.020580422
156	0xbdab2d2a	-0.08358224
157	0x39e5fe9a	0.00043867977
158	0x3d9ba6d7	0.076001815
159	0x3d8edc43	0.06975605
160	0x3cecbd05	0.028898725
161	0xbe3c63a6	-0.18397388
162	0x3b2ff35b	0.0026847932
163	0x3ae10854	0.001716862
164	0xbf1ed5e5	-0.6204513
165	0xbdddf2bd	-0.10837314
166	0xbe4de124	-0.20105416
167	0xbd8979ad	-0.06712661
168	0xbdf1eeee	-0.1181315
169	0xbf4fd054	-0.8117726
170	0x3d828649	0.06373269
171	0x3eb0cfd6	0.34533566
172	0x3c4d521e	0.012531785
173	0xbf3b8894	-0.73255277
174	0xbe435c58	-0.19078195
175	0x3cbd703f	0.023124812
176	0xbcb4f5a3	-0.022089785
177	0x3f0f606a	0.5600649
178	0xbc8ab3d9	-0.016931461
179	0xbdb37d17	-0.08764093
180	0xbe13eec7	-0.14446555
181	0xbeaa4f05	-0.33263412
182	0xbc99aa50	-0.01875797
183	0x3d6cd8cc	0.05782394
184	0x3cbda6b5	0.023150781
185	0xbf3c8cef	-0.7365255
186	0xbed4a785	-0.41534057
187	0x3d134ea1	0.03596366
188	0xbca838d7	-0.020534916
189	0xbcd94e6a	-0.026526649
190	0x3d0b2949	0.03397492
191	0x3d483757	0.0488809
192	0xbe2cf064	-0.16888577
193	0xbcfaa3c4	-0.030595668
194	0xbd10fdbd	-0.035398234
195	0x3d3e7d4b	0.046506207
196	0x3dcb0d65	0.09914664
197	0x3b7da32a	0.003870199
198	0xbd312928	-0.04325214
199	0x3f380edf	0.7189769
200	0x3ca00021	0.019531311
201	0xbe8b651e	-0.27225584
202	0xbc406d22	-0.011744769
203	0xbd08e229	-0.033418808
204	0xbc79f686	-0.01525653
205	0xbd02eff8	-0.031967133
206	0xbe05b73c	-0.1305818
207	0xbea33577	-0.31876728
208	0xbc311347	-0.010807819
209	0xbef93791	-0.48675206
210	0x3f3cd0cb	0.7375609
211	0x3e4feebe	0.20305917
212	0x3c37ba44	0.011213843
213	0xbd1d9374	-0.0384707
214	0xbdaf1cd7	-0.08550423
215	0x3e32db48	0.17466462
216	0x3c3a086a	0.011354545
217	0xb882eb88	-6.242754e-05
218	0x3ce3981e	0.027782496
219	0x3db91848	0.090378344
220	0xbe2054ff	-0.15657423
221	0x3f6a9d80	0.91646576
222	0xbebbd577	-0.36686298
223	0xbd933040	-0.07186937
224	0x3b9a90d7	0.0047169733
225	0xbe9b23ee	-0.3030085
226	0x3d113976	0.03545519
227	0x3d0beee2	0.034163363
228	0x3db9116b	0.09036525
229	0x3e012ad3	0.12613992
230	0x3d3a8daf	0.045545276
231	0xbcc383e8	-0.023866609
232	0xbd88fcc1	-0.06688834
233	0xbd499633	-0.049215507
234	0xbd9ca218	-0.076481044
235	0x3c8c7312	0.017144714
236	0x3f349766	0.70543516
237	0xbd77ea38	-0.060526103
238	0x3ea8995f	0.32929513
239	0x3cac3f61	0.021026315
240	0x3eb3ec87	0.35141394
241	0x3e87f71a	0.2655571
242	0xbf11d54f	-0.5696611
243	0xbc80379c	-0.015651517
244	0x3db5079a	0.088393405
245	0x3d14cafc	0.036326393
246	0xbe998b6c	-0.29989183
247	0xbdfa7451	-0.12229217
248	0xbc1dab11	-0.009623305
249	0xbc87513d	-0.01651823
250	0xbc44f4d5	-0.012021263
251	0x3df32126	0.11871557
252	0x3e0e46be	0.13894174
253	0x3c0a3bae	0.00843708
254	0xbc283ad0	-0.010267928
255	0x3d80cf5f	0.06289553

fc.bias f4 [66]
0	0x3e3f8148	0.1870166
1	0x3e03980f	0.12850975
2	0xbdc12ee7	-0.09432774
3	0x3cf3d0d0	0.029762655
4	0x3e8a83c1	0.27053645
5	0xbe2a3c88	-0.16624653
6	0xbe043e90	-0.1291449
7	0x3cc6d613	0.024272
8	0xbd99b658	-0.075054824
9	0xbdc2b0b8	-0.09506363
10	0xbd95a58d	-0.07306967
11	0x3c7401f4	0.014893044
12	0xbd63593b	-0.05550502
13	0x3cd2921f	0.025704442
14	0x3e5c22c6	0.2149764
15	0xbdbcc4ec	-0.09217247
16	0xbdcf2c08	-0.1011582
17	0xbdc5f010	-0.09664929
18	0x3e998f11	0.29991964
19	0x3d4023a7	0.046909
20	0x3d8990ba	0.067170575
21	0xbd9fb3cc	-0.077979654
22	0xbd4a6b34	-0.049418643
23	0xbd93621b	-0.071964465
24	0xbd8faf28	-0.0701583
25	0xbce157da	-0.027507711
26	0xbde6c27c	-0.11267564
27	0x3c2929f5	0.010324945
28	0x3caacc75	0.020849446
29	0xbe008294	-0.12549812
30	0xbd4784d0	-0.048710644
31	0xbdd58d62	-0.10427357
32	0xbd3ff256	-0.04686197
33	0xbdd11877	-0.102097444
34	0xbdab56c2	-0.08366157
35	0xbd19b2a3	-0.037523877
36	0x3d0ab772	0.033866353
37	0xbd945a44	-0.07243779
38	0x3d9b3bbe	0.07579754
39	0x3dd106af	0.10206353
40	0xbd789383	-0.060687553
41	0xbdbb571b	-0.091474734
42	0x3c028704	0.007966761
43	0xbda8696a	-0.08223231
44	0xbd006035	-0.03134175
45	0xbe25974a	-0.16170993
46	0x3e9ed229	0.31019714
47	0x3e544621	0.20729877
48	0x3eb0a3e6	0.34500045
49	0x3d39add2	0.045331784
50	0xbdc0809d	-0.09399531
51	0xbe0b3eb4	-0.13598138
52	0x3d935bd5	0.0719525
53	0x3d731f3e	0.059355967
54	0xbd61f736	-0.0551674
55	0xbd7e42b8	-0.062075347
56	0xbda6c2ee	-0.08142649
57	0xbd890c38	-0.06691784
58	0xbdecadaa	-0.11556561
59	0x3cd535bc	0.0260266
60	0xbd15ea9c	-0.036600694
61	0xbe03a4d1	-0.12855841
62	0xbdf8efe8	-0.121551335
63	0xbdedd7b4	-0.11613408
64	0x3db36dcd	0.08761177
65	0xbd739336	-0.059466563
